log_scannet/log_finetune_20240525-20:52/base_classifier_weights.npy (npy, 4736 bytes, 1 tensors)

array f4 [9, 128, 1]
-0.6231065 0.08586149 0.25079885 0.28915548 -0.09156454 0.15835828 -0.17883593 -0.38438836
0.02185625 -0.09150122 0.46358195 -0.36800417 0.24266315 0.14717522 0.11128615 0.0005834633
-0.089491285 -0.090913065 -0.35481194 -0.21500689 0.2911155 0.14643173 -0.006479233 0.31122002
0.14312616 0.19297823 -0.18451367 -0.66547555 0.33335832 0.087578245 0.3416503 -0.013762739
-0.21030705 -0.06832124 0.012036041 -0.15170383 0.23847665 0.070905164 -0.09854722 -0.15135689
-0.16263406 -0.1066596 -0.08226682 0.17786478 0.021909967 -0.05889966 0.20402704 -0.9174131
-0.45189026 -0.838532 0.07671556 -0.42783406 -0.2247611 -0.04158765 -0.36327332 -0.32742688
-0.32681873 -0.6939236 -0.4328406 0.00046203687 0.45013076 -0.22113349 0.14506066 -0.5481218
0.29381502 -0.26875302 -0.4742615 0.4743784 -0.09004872 -0.20812753 -0.03344479 0.2701126
0.1771548 0.2268297 -0.09923957 -0.17125474 -0.099751055 -0.08541199 -0.296192 -0.34896812
-0.4448765 -0.119009644 0.15381782 0.0024886904 0.042241435 -0.123189814 -0.010817758 -0.10204033
-0.4226391 -0.73697615 -0.18563531 0.1580934 0.1581803 -0.24066582 -0.28280556 -0.22679776
0.1396546 -0.06799025 0.11860782 0.39680916 0.26038584 -0.4660427 -0.252399 -0.15779802
0.049688254 -0.6476404 -0.54299545 -0.4154831 0.19392455 0.115542464 0.11659644 -0.16661817
0.4204156 0.084234916 0.2640015 0.37085956 0.20186609 -0.26559007 -0.15217362 -0.095677
-0.14641495 -0.030440094 -0.024362983 -0.6510072 -0.36288288 0.4423439 -0.058395706 -0.39988452
-0.5707011 -0.76641166 -0.48278624 -0.113211125 -0.18587914 0.26952058 -0.06394245 -0.6480724
0.049589567 0.6378049 0.36248907 -0.5723504 -0.42989746 -0.42637685 -0.0065015857 0.022781292
0.12247924 0.0031486913 0.043097492 -0.4042282 0.15400079 -0.213046 -0.28071544 -0.19425845
-0.15462388 -0.4728746 -0.10046711 -0.5503289 -0.3595427 -0.10538153 -0.5275776 -0.4159707
-0.04448342 -0.18623938 -0.1662991 -0.37654614 -0.2243287 -0.29887226 -0.5102463 -0.81262714
-0.24549773 0.3387992 0.206864 -0.42030403 -0.1611524 -0.3037867 -0.463704 0.1814354
0.22922575 -0.16036303 0.28188917 0.10675496 0.06759633 -0.24634139 0.3191778 -0.16762099
0.41625094 -0.27311245 -0.22611909 -0.06969373 -0.80741733 -0.4594399 -0.59287137 -0.5154947
0.009766084 -0.016682887 0.016921617 0.2240394 -0.059030857 -0.031171327 0.13813932 0.19565675
0.08272866 -0.292281 -0.45770738 0.016866263 -0.6822421 0.15125836 -0.42653498 -0.42458704
-0.34172836 -0.31018436 0.28983745 0.4415765 -0.21936001 -0.03743532 0.011248968 -0.18713848
-0.44004852 -0.07513532 0.14512296 -0.0012849086 0.44234467 0.6287092 -0.46713123 -0.2372551
-0.35267293 -0.1602308 -0.34689146 0.10904166 0.26042747 -0.1734859 -0.21933632 0.7002365
0.16162987 -0.27020162 -0.75472516 -0.3523295 0.05360937 -0.08685855 -0.030281287 -0.3680743
0.28539416 0.3469399 -0.40035042 -0.106502526 -0.4479411 -0.32621866 -0.528345 0.023880627
-0.43141636 0.011386682 0.013172092 -0.11969828 -0.51801395 -0.43449587 -0.62980515 -0.38697907
00000000: e883 1fbf 26d8 af3d b568 803e 300c 943e
00000010: 3186 bbbd ac28 223e c420 37be 8dce c4be
00000020: e10b b33c fe64 bbbd 9d5a ed3e 0b6b bcbe
00000030: b07c 783e 1ab5 163e fee9 e33d 8ff3 183a
00000040: 3547 b7bd a130 babd e9a9 b5be c42a 5cbe
00000050: 170d 953e 33f2 153e bf4f d4bb 3b58 9f3e
00000060: aa8f 123e 169c 453e 27f1 3cbe 9b5c 2abf
00000070: f1ad aa3e 395c b33d caec ae3e 1c7d 61bc
00000080: bb5a 57be 02ec 8bbd d132 453c 4058 1bbe
00000090: 3933 743e ba36 913d 20d3 c9bd 4dfd 1abe
000000a0: 8b89 26be 5970 dabd 827b a8bd 2f22 363e
000000b0: 887c b33c c540 71bd 77ec 503e 96db 6abf
000000c0: 295e e7be 08aa 56bf 0c1d 9d3d 110d dbbe
000000d0: c627 66be d057 2abd f6fe b9be 7fa4 a7be
000000e0: c954 a7be faa4 31bf 489d ddbe 8a3d f239
000000f0: 8a77 e63e d170 62be c88a 143e b651 0cbf
00000100: ec6e 963e ff99 89be 67d2 f2be bae1 f23e
00000110: 776b b8bd 621f 55be 67fd 08bd 334c 8a3e
00000120: 1168 353e 0b46 683e 1e3e cbbd 675d 2fbe
00000130: 484a ccbd 7bec aebd 7aa6 97be f3ab b2be
00000140: dac6 e3be 54bb f3bd 6b82 1d3e 4c19 233b
00000150: 5b05 2d3d f14a fcbd f73c 31bc 85fa d0bd
00000160: 2764 d8be 78aa 3cbf 2f17 3ebe 3ce3 213e
00000170: 04fa 213e 1a71 76be e4cb 90be ac3d 68be
00000180: 9e01 0f3e 793e 8bbd a8e8 f23d 922a cb3e
00000190: 4b51 853e 269d eebe 713a 81be ce95 21be
000001a0: e985 4b3d c3cb 25bf c001 0bbf 33ba d4be
000001b0: 2894 463e 87a1 ec3d 1dca ee3d f49d 2abe
000001c0: b740 d73e 5b83 ac3d 342b 873e 4ee1 bd3e
000001d0: fcb5 4e3e 6cfb 87be 67d3 1bbe 4ef2 c3bd
000001e0: cded 15be 815d f9bc e194 c7bc 68a8 26bf
000001f0: c9cb b9be e67a e23e 5630 6fbd aabd ccbe
00000200: 7819 12bf 8e33 44bf c22f f7be 3cdb e7bd
00000210: 1a57 3ebe 9afe 893e 42f4 82bd 13e8 25bf
00000220: 6e1e 4b3d 2f47 233f 2b98 b93e 8e85 12bf
00000230: 851b dcbe 114e dabe 410b d5bb d59f ba3c
00000240: 65d6 fa3d 465a 4e3b ff86 303d 00f7 cebe
00000250: 62b2 1d3e bb28 5abe efb9 8fbe b0eb 46be
00000260: b955 1ebe 9f1c f2be b3c1 cdbd 5be2 0cbf
00000270: fb15 b8be 46d2 d7bd 530f 07bf 1dfa d4be
00000280: 3f34 36bd 89b5 3ebe 504a 2abe a8ca c0be
00000290: 6cb6 65be c905 99be 809f 02bf 5508 50bf
000002a0: c263 7bbe 1777 ad3e 28d4 533e 1732 d7be
000002b0: 2205 25be ee89 9bbe 9c6a edbe 34ca 393e
000002c0: 28ba 6a3e 3536 24be c753 903e 58a2 da3d
000002d0: f26f 8a3d eb40 7cbe 466b a33e d6a4 2bbe
000002e0: d81e d53e 65d5 8bbe c38b 67be 96bb 8ebd
000002f0: e7b2 4ebf b53b ebbe 6bc6 17bf 76f7 03bf
00000300: ed01 203c 8daa 88bc 349f 8a3c 966a 653e
00000310: 57ca 71bd 035b ffbc 6574 0d3e 3e5a 483e
00000320: a56d a93d dba5 95be 9f58 eabe 1e2b 8a3c
00000330: 6ba7 2ebf 79e3 1a3e cb62 dabe 7963 d9be
00000340: 05f7 aebe 7cd0 9ebe 9365 943e 5116 e23e
00000350: e99f 60be c755 19bd 974d 383c 3ba1 3fbe
00000360: 0a4e e1be 8ce0 99bd 1d9b 143e 616a a8ba
00000370: 007b e23e 16f3 203f d32b efbe 00f3 72be
00000380: 8c91 b4be 8b13 24be c29b b1be 3c51 df3d
00000390: c056 853e 4aa6 31be b399 60be b342 333f
000003a0: 4d82 253e de57 8abe ab35 41bf 8864 b4be
000003b0: 8095 5b3d e5e2 b1bd 7610 f8bc 3c74 bcbe
000003c0: 2f1f 923e 1ba2 b13e bbfa ccbe ff1d dabd
000003d0: 8958 e5be 2206 a7be 9e41 07bf 4ea1 c33c
000003e0: 9be2 dcbe 358f 3a3c c2cf 573c 5f24 f5bd
000003f0: 909c 04bf 3e76 debe e93a 21bf 1f22 c6be
